…
2020-09-29 20:56:38.182054: I tensorflow/core/common_runtime/gpu/gpu_device.cc:1102] Device interconnect StreamExecutor with strength 1 edge matrix:
2020-09-29 20:56:38.182087: I tensorflow/core/common_runtime/gpu/gpu_device.cc:1108]      
Model: "model"
_________________________________________________________________
Layer (type)                 Output Shape              Param #   
=================================================================
input_1 (InputLayer)         [(None, 50, 200)]         0         
_________________________________________________________________
bidirectional (Bidirectional (None, 50, 2048)          10035200  
_________________________________________________________________
soft_attention_concat (SoftA (None, 4096)              2049      
_________________________________________________________________
batch_normalization (BatchNo (None, 4096)              16384     
_________________________________________________________________
dense (Dense)                (None, 1000)              4097000   
_________________________________________________________________
dropout (Dropout)            (None, 1000)              0         
_________________________________________________________________
dense_1 (Dense)              (None, 2)                 2002      
=================================================================
Total params: 14,152,635
Trainable params: 14,144,443
Non-trainable params: 8,192
_________________________________________________________________
Epoch 1/200
 1/49 [..............................] - ETA: 0s - loss: 1.4142 - accuracy: 0.3398 
…
