…
2020-10-02 20:39:23.470351: I tensorflow/core/common_runtime/gpu/gpu_device.cc:1102] Device interconnect StreamExecutor with strength 1 edge matrix:
2020-10-02 20:39:23.470389: I tensorflow/core/common_runtime/gpu/gpu_device.cc:1108]      
Model: "model"
_________________________________________________________________
Layer (type)                 Output Shape              Param #   
=================================================================
input_1 (InputLayer)         [(None, 50, 200)]         0         
_________________________________________________________________
bidirectional (Bidirectional (None, 50, 2048)          10035200  
_________________________________________________________________
soft_attention_concat (SoftA (None, 4096)              2049      
_________________________________________________________________
batch_normalization (BatchNo (None, 4096)              16384     
_________________________________________________________________
dense (Dense)                (None, 1000)              4097000   
_________________________________________________________________
dropout (Dropout)            (None, 1000)              0         
_________________________________________________________________
dense_1 (Dense)              (None, 3)                 3003      
=================================================================
Total params: 14,153,636
Trainable params: 14,145,444
Non-trainable params: 8,192
_________________________________________________________________
(11588, 50, 200) (1247, 50, 200) (11588, 3) (1247, 3)
Epoch 1/200
 1/46 [..............................] - ETA: 0s - loss: 1.3876 - accuracy: 0.3398
…
